saved_model/bayesbeat_cpu.pt (torch_old, 738019 bytes, 72 tensors)

convpool1.0.conv.W_mu f4 [64, 1, 10]
000000 f1 24 86 be 28 fe 30 bf 88 f5 fe be 3a 32 20 bf
       -0.2620006 -0.6913781 -0.497967 -0.6257664
000010 4d 71 64 bf c4 8d a5 bf d2 ca 84 bf 4a f5 e1 be
       -0.89235383 -1.2933888 -1.0374396 -0.44132453
000020 93 0b e8 be 73 29 40 bf 65 a5 20 bf 3f 13 b2 be
       -0.4532133 -0.75063246 -0.6275237 -0.3478031
000030 af c0 b6 3e b1 d9 1d 3f 2f 06 6d 3f 30 c1 8a 3f
       0.3569388 0.61660296 0.9258756 1.0840206
000040 82 be 2c 3f a9 6f 8d 3e 09 c7 39 be 88 e0 16 bf
       0.6747819 0.27624252 -0.18142332 -0.5893636
000050 69 2e 14 be 02 09 3a bf 77 26 7c bf b3 35 61 bf
       -0.14470829 -0.72669995 -0.9849619 -0.87972564
000060 a0 29 4e bf c3 ba 44 bf 6a 30 c4 bd 97 d3 b4 3f
       -0.80532265 -0.76847476 -0.09579547 1.4127072
000070 82 66 1f 40 e3 ec bd 3f 0e 98 4d bf 91 2d 90 bf
       2.4906316 1.4837917 -0.8031014 -1.1263906
000080 0d f7 9d be c6 94 04 3f e3 ca 01 3e 77 0c 92 bd
       -0.30852547 0.5178951 0.12675051 -0.07131284
000090 95 a6 10 bd 3d a0 92 3e 8c e9 6f 3e a7 36 8b be
       -0.035315115 0.28637877 0.23428935 -0.27190134
0000a0 8e 32 1a bf ed 37 46 bf 1f a9 ea be e3 e9 e6 be
       -0.6023339 -0.77429086 -0.45832154 -0.45100316
0000b0 bf 30 e5 be 59 35 8e bd b4 fe e8 bd 8c 89 99 3e
       -0.44763753 -0.06943769 -0.11376706 0.29987752
0000c0 3f 8a 3c 3f eb 08 6c 3f a9 03 23 40 e9 9a 01 40
       0.73648447 0.9220111 2.5470984 2.02508
0000d0 5f 45 ca 3e d5 d9 06 bf 4e 57 77 bf 34 c9 c3 bf
       0.3950605 -0.52676135 -0.9661759 -1.5295777
0000e0 2c f8 c6 bf 43 51 85 bf e2 c7 a0 bd db 1b 9e 3e
       -1.5544486 -1.0415424 -0.078506246 0.30880627
0000f0 7e 49 d7 be 1e 8b 52 bf 41 cb 0b bf d6 2f 2a 3e
       -0.42048258 -0.82243526 -0.54607016 0.1661981
000100 95 c1 fc 3e 79 4d b1 bc d9 20 d5 be 2b ba 3c 3e
       0.4936644 -0.021643387 -0.41626623 0.18430392
000110 b4 df 18 3f c3 38 85 bd 34 99 b0 3e fd b5 2a 3f
       0.59716344 -0.06504967 0.34491885 0.6668394
000120 49 ed 21 3f e3 21 2e 3f be 25 34 3f 59 06 72 3e
       0.63252693 0.6802046 0.7037009 0.23635234
000130 6e 40 0c be 2f a4 e4 be 6a de 5f bf 19 da 6a bf
       -0.13696453 -0.44656512 -0.8744875 -0.9173904
000140 6d 54 ea bd f2 0d 2e 3f 57 37 3d 3f 7c 02 84 3f
       -0.11441884 0.6799003 0.73912567 1.0313258
000150 ce d0 47 3f 75 b5 1b 3f ae 62 6e 3e a2 ce 91 3d
       0.78052986 0.60823756 0.23279831 0.0711949
000160 46 6e 1e be dc 8e 09 bf 52 58 9f 3f d1 37 4e 3e
       -0.15471753 -0.5373361 1.2448828 0.2013848
000170 5f 5b 66 bf 1c aa 03 c0 b1 2e f7 bf 9b 96 5c bf
       -0.8998317 -2.0572577 -1.9311124 -0.86167306
000180 a5 5f c0 3d 4b 90 96 3f ac 33 f6 3f 20 94 d8 3f
       0.09393243 1.1762785 1.9234519 1.6920204
000190 a2 99 50 3f 72 f3 66 3f 72 d7 59 3f 75 fb d5 3e
       0.81484425 0.9021522 0.8509437 0.4179341
0001a0 58 7a 4b 3e b7 7f d9 be e4 2f 52 bf 5f 76 5b bf
       0.19870889 -0.4248025 -0.82104325 -0.85727495
0001b0 36 43 66 bf 52 9c 32 bf 48 52 2f bd 4a ad 18 bf
       -0.89946306 -0.69769776 -0.04280308 -0.5963942
0001c0 b3 bb 7b bf 04 f2 2e bf 1f 81 29 bf 8e 3b 2c bf
       -0.9833328 -0.68338037 -0.6621265 -0.67278373
0001d0 6c e6 ad be 8d 7d 69 3f d5 61 fa 3f 63 e9 92 3f
       -0.3396486 0.912072 1.9561106 1.1477474
0001e0 c5 e6 03 bf fe 17 c7 be b8 76 85 bc f5 66 12 3f
       -0.51524 -0.38885492 -0.016291961 0.5718835
0001f0 09 dd 62 3f c3 26 52 3f e9 f7 fa 3e 4f 49 07 3d
       0.8861852 0.82090396 0.49017265 0.033028897
000200 20 61 78 be 36 85 b8 be 7d fa d7 be 8a 85 44 bf
       -0.242558 -0.36039132 -0.42183295 -0.76766264
000210 dd 71 5d bf e4 f2 d9 be 70 7e ce 3d e3 17 a4 3d
       -0.86501867 -0.42568123 0.1008271 0.080123685
000220 4d 2e ba be c6 fc 1b bf 82 75 23 bf 5c 31 69 bf
       -0.3636345 -0.60932577 -0.6385118 -0.9109094
000230 06 e3 8d 3f 4d cc 94 3f 13 de 54 3f 21 92 8c 3e
       1.1084907 1.1624848 0.8315136 0.27455238
000240 56 58 ff be aa f6 4f bf 6b ea 5b bf c2 b9 8a bf
       -0.49872082 -0.81235754 -0.8590457 -1.0837939
000250 19 5d 57 bf 29 86 35 bf 9e b5 d0 3f 3e 19 c1 3f
       -0.8412643 -0.7090784 1.6305425 1.5085828
000260 ee 30 56 3f c3 78 2e 3e 12 98 3a bf 25 05 62 bf
       0.8366841 0.17038254 -0.7288829 -0.882891
000270 21 a6 78 bf 14 1b 7e bf bf 1c 3b bf 1d b3 1c bf
       -0.9712849 -0.9926007 -0.7309074 -0.61210805
000280 60 9a 53 bd 98 0d cc 3d 1f 5b 14 3c 7d 7d e1 3d
       -0.051660895 0.0996353 0.009054928 0.11010263
000290 ad bd 14 3e e2 3e 98 bb 07 2b 57 be 4e 40 ce be
       0.1452548 -0.004646168 -0.21012507 -0.40283436
0002a0 60 5a 01 bf 7b 28 0d bf bb af 86 3e 4b 69 32 3f
       -0.50528526 -0.55139893 0.26305947 0.69691914
0002b0 2b 25 1e 3f b1 ee fa 3e 80 b8 13 3f 10 2c d6 3d
       0.61775464 0.49010232 0.577034 0.10457623
0002c0 4e 67 b4 be a3 4c f1 be 2a 65 3d bf d6 a2 74 bf
       -0.35235065 -0.47128782 -0.7398249 -0.9556097
0002d0 80 8d 1b bf 41 f5 48 bf 4d 9c 64 bf 0b 0f 83 bf
       -0.60762787 -0.7849923 -0.89300996 -1.0238966
0002e0 e9 e7 60 bf 16 93 33 bf 39 fa 3d bf 3f 1b 2c bf
       -0.87853867 -0.7014631 -0.74209934 -0.67229074
0002f0 ef 52 09 bf 0b b5 da be ad cf 80 be 6c 3c 60 bf
       -0.5364217 -0.4271625 -0.25158444 -0.87592196
000300 97 2c 97 bf 15 dc c1 be 9f 2d 2c 3f 71 89 ec 3e
       -1.1810483 -0.37863222 0.6725711 0.4619861
000310 b0 c9 a3 be 11 3f 0b bf 0a 4b 75 3d 9e 23 91 bd
       -0.31989813 -0.54393107 0.059886016 -0.070868716
000320 5a c2 95 bd 21 82 a2 bf 64 dd d6 bf c1 08 cf bf
       -0.0731246 -1.2695962 -1.6786313 -1.6174546
000330 45 ca 9a bf f7 0d 62 be fe 06 5d 3f a6 06 17 40
       -1.2092978 -0.2207564 0.86338794 2.3597808
000340 5f 4a 21 40 2d 25 ce 3f 4b 9f b7 3e 41 29 89 3e
       2.5201643 1.6105095 0.35863718 0.26789287
000350 8f a7 1f 3f 72 bb 3b 3e 5d b5 8f 3e 88 d4 27 3d
       0.6236505 0.18333223 0.28068057 0.04097417
000360 b8 e2 9d be 53 99 02 bf 97 0b e4 be c9 9f 3c bf
       -0.30837035 -0.51015204 -0.44540092 -0.7368131
000370 23 6c 91 3e ee e2 6a 3e 76 14 9d 3e c6 61 7d 3e
       0.28402814 0.2293813 0.30679673 0.24744329
000380 27 35 23 3f fe f3 07 3f 34 36 fc bc 57 80 ad be
       0.6375298 0.5310668 -0.030787565 -0.33886978
000390 d0 ba 4e bf 7c b2 7f bf 4f ee 2c bd 4a c4 74 bf
       -0.80753803 -0.9988172 -0.042219456 -0.95612013
0003a0 f6 69 91 bf df 7a 99 bf bc 2c a3 bf 7f e3 0b bd
       -1.1360462 -1.1990622 -1.2748027 -0.034152504
0003b0 a4 5a af 3f 64 28 e3 3f 0f e2 8d 3f cf f9 a0 3e
       1.3699536 1.7746701 1.1084613 0.3144059
0003c0 06 80 0b bf 14 7a 48 bf 90 ff 53 bf 7b 1c 90 bf
       -0.54492223 -0.78311276 -0.8281183 -1.1258692
0003d0 f6 69 52 bf 2f 18 7a bf 6d ad 58 bf 0b 13 69 bf
       -0.82192934 -0.9769315 -0.84639627 -0.9104468
0003e0 cc 58 44 bf 42 ca 46 bf 36 4d ea be 68 62 5a bf
       -0.76697993 -0.7765237 -0.45762032 -0.85306406
0003f0 0b 6a 4e bf c8 db 93 be da c3 7e be b6 41 f2 be
       -0.8063056 -0.28878617 -0.24879399 -0.47315758

convpool1.0.conv.W_rho f4 [64, 1, 10]
000000 d2 1e 26 c0 b7 01 48 c0 5f 32 5a c0 67 df 63 c0
       -2.5956311 -3.1251047 -3.4093244 -3.5605104
000010 33 59 6f c0 4d 1c 6f c0 a1 61 62 c0 a2 9b 6c c0
       -3.7398193 -3.7361023 -3.5372088 -3.696999
000020 d6 1c 68 c0 35 e4 51 c0 4d db 91 c0 ae b3 94 c0
       -3.62676 -3.2795537 -4.55802 -4.6469336
000030 97 a1 8c c0 91 60 80 c0 be 38 6d c0 49 5f 67 c0
       -4.3947253 -4.011788 -3.7065883 -3.6151907
000040 3f 7d 80 c0 0c f8 8b c0 1e 86 9e c0 85 1f 94 c0
       -4.015289 -4.374029 -4.9538717 -4.6288476
000050 0b ef b4 c0 a2 ef 9d c0 a5 a9 9a c0 63 7c 9b c0
       -5.65418 -4.935502 -4.8332086 -4.858934
000060 1c 82 9e c0 bf 2f a2 c0 2c b9 b7 c0 19 92 90 c0
       -4.9533825 -5.0683284 -5.741354 -4.517834
000070 b2 b6 87 c0 6d f8 8e c0 79 4d 8b c0 c1 54 86 c0
       -4.2410517 -4.4678254 -4.353207 -4.197846
000080 d4 f8 92 c0 61 bf 8b c0 df 39 93 c0 16 a1 89 c0
       -4.5928745 -4.3671117 -4.6008143 -4.300914
000090 00 c2 88 c0 34 55 82 c0 02 0e 85 c0 c3 0f 8f c0
       -4.2736816 -4.072901 -4.15796 -4.470674
0000a0 46 bd 88 c0 9f c9 84 c0 07 3a 8f c0 ea a7 8d c0
       -4.2731047 -4.149612 -4.4758334 -4.4267473
0000b0 24 d3 8a c0 49 a1 8c c0 6a 08 81 c0 1f 5f 66 c0
       -4.338274 -4.394688 -4.032277 -3.5995557
0000c0 6e f2 4b c0 c5 df 55 c0 7d 0e 56 c0 41 67 81 c0
       -3.1866717 -3.3417828 -3.3446343 -4.043854
0000d0 8d 9c 9f c0 b5 c0 9a c0 40 75 93 c0 21 af 8b c0
       -4.98786 -4.836024 -4.6080627 -4.365128
0000e0 fe 5a 8c c0 0f 05 90 c0 01 03 b0 c0 43 c7 9f c0
       -4.3861074 -4.5006175 -5.5003667 -4.993074
0000f0 c7 61 8f c0 7e 02 87 c0 d4 2c 88 c0 de ce 8b c0
       -4.4806857 -4.219054 -4.255472 -4.3690023
000100 c9 1f 80 c0 eb c9 84 c0 e5 0b 83 c0 94 5f 7f c0
       -4.00388 -4.149648 -4.095202 -3.9902086
000110 0c 23 7a c0 68 c0 95 c0 5e 85 82 c0 7b 31 6a c0
       -3.908389 -4.679737 -4.07878 -3.65927
000120 5d b7 58 c0 27 ac 55 c0 2c 1f 60 c0 5b de 86 c0
       -3.3861916 -3.3386323 -3.5019026 -4.214643
000130 85 81 93 c0 b7 4d 92 c0 87 20 8a c0 2e 17 8b c0
       -4.6095605 -4.5719867 -4.3164706 -4.3465796
000140 36 09 a6 c0 a3 79 8e c0 5a 90 8a c0 04 5e 80 c0
       -5.1886244 -4.452348 -4.330121 -4.0114765
000150 ea 11 7f c0 00 de 84 c0 81 9b 92 c0 c6 95 9f c0
       -3.9854684 -4.1520996 -4.5814824 -4.987033
000160 d0 64 a6 c0 ed 02 9a c0 59 44 a9 c0 ff 95 c7 c0
       -5.199806 -4.812857 -5.289593 -6.23706
000170 d0 d0 ad c0 2d 14 a9 c0 c7 80 aa c0 32 97 b1 c0
       -5.43174 -5.283713 -5.32822 -5.5497065
000180 8c e3 c3 c0 c4 c4 a6 c0 4f b2 9e c0 f6 0c a0 c0
       -6.1215267 -5.2115192 -4.959266 -5.001582
000190 ad c2 3a c0 9c e3 36 c0 9a 6d 4b c0 3f 0c 66 c0
       -2.918132 -2.8576422 -3.1785645 -3.5944974
0001a0 e1 59 86 c0 94 57 87 c0 55 9e 82 c0 0d f6 84 c0
       -4.1984715 -4.2294407 -4.0818276 -4.1550355
0001b0 e7 74 83 c0 b8 ff 86 c0 33 08 ba c0 4b 58 a1 c0
       -4.1080203 -4.2187157 -5.813501 -5.042028
0001c0 50 85 9a c0 c7 b2 a0 c0 db e6 9f c0 21 8d a1 c0
       -4.8287735 -5.0218234 -4.9969306 -5.0484776
0001d0 f0 6a ac c0 97 fa 96 c0 4b ac 8b c0 a2 18 93 c0
       -5.388054 -4.7180896 -4.364782 -4.596757
0001e0 e1 81 93 c0 f9 c0 96 c0 e1 8c 9a c0 45 26 82 c0
       -4.6096044 -4.711056 -4.829697 -4.0671716
0001f0 ca 61 6e c0 28 d4 6e c0 66 74 7e c0 06 91 97 c0
       -3.7247186 -3.731699 -3.9758544 -4.736453
000200 ce 85 9c c0 2d 26 9c c0 66 3e 51 c0 61 ab 4e c0
       -4.8913336 -4.87966 -3.2694335 -3.2292101
000210 c7 0e 54 c0 6a 4d 39 c0 8a af 25 c0 21 06 2a c0
       -3.313402 -2.89535 -2.588839 -2.656624
000220 cd 53 2f c0 fb 9b 3f c0 e6 b0 45 c0 2e 93 4f c0
       -2.7394898 -2.9938953 -3.088922 -3.2433581
000230 b2 ea 11 c0 be db 1a c0 03 32 43 c0 3d 8e 7e c0
       -2.2799497 -2.419662 -3.0499275 -3.9774315
000240 11 4c 7a c0 cf 50 78 c0 cf fd 75 c0 cf 26 72 c0
       -3.9108927 -3.8799322 -3.8436162 -3.7836187
000250 2e f7 7b c0 8d 5d 7b c0 ea 9b 22 c0 89 74 4a c0
       -3.9369617 -3.927585 -2.5407662 -3.1633627
000260 4b bf 77 c0 78 f3 94 c0 02 a1 87 c0 7d 4a 86 c0
       -3.8710506 -4.6547203 -4.2384043 -4.196593
000270 cf 14 85 c0 f1 26 85 c0 a3 d7 8a c0 a3 7f 8c c0
       -4.15879 -4.1610036 -4.338823 -4.3905807
000280 a4 86 60 c0 53 eb 3b c0 7e 51 3c c0 c0 ad 41 c0
       -3.5082178 -2.936238 -2.942474 -3.0262299
000290 e8 d5 47 c0 cd d6 4d c0 0b 82 5b c0 9e 07 69 c0
       -3.1224308 -3.2162354 -3.4298122 -3.64109
0002a0 f0 b6 70 c0 c3 05 72 c0 db f8 76 c0 62 f7 60 c0
       -3.7611656 -3.7816017 -3.858939 -3.515099
0002b0 d3 38 51 c0 f0 7e 63 c0 c8 40 6b c0 3c 59 84 c0
       -3.2690933 -3.5546227 -3.675829 -4.135893
0002c0 22 85 8d c0 4e b5 8e c0 90 73 8b c0 e3 55 88 c0
       -4.4225016 -4.459632 -4.3578568 -4.260484
0002d0 20 36 38 c0 75 db 51 c0 43 8e 62 c0 03 48 6a c0
       -2.8783035 -3.2790196 -3.539933 -3.6606452
0002e0 6d 2b 69 c0 0c dd 63 c0 2b eb 60 c0 16 dc 53 c0
       -3.6432755 -3.5603666 -3.5143535 -3.310308
0002f0 c7 be 53 c0 24 ab 3d c0 e2 69 9b c0 35 18 8c c0
       -3.3085191 -2.9635706 -4.856675 -4.377955
000300 30 af 86 c0 05 06 94 c0 fe ef 8b c0 dd 48 8e c0
       -4.208885 -4.625735 -4.373046 -4.4463944
000310 a1 70 94 c0 88 0f 8d c0 4f 79 98 c0 5b 8c 9b c0
       -4.6387486 -4.408146 -4.764808 -4.860883
000320 28 06 c0 c0 d5 62 a4 c0 19 6f a1 c0 34 36 a5 c0
       -6.0007515 -5.1370645 -5.0448117 -5.1628666
000330 d5 d6 a4 c0 ff 2b c0 c0 54 fb a1 c0 30 dd 93 c0
       -5.1512246 -6.0053706 -5.0619297 -4.6207504
000340 ba ac 93 c0 21 52 98 c0 dd 37 5d c0 a3 42 5e c0
       -4.614835 -4.7600255 -3.4565346 -3.4728172
000350 1b 80 58 c0 9a d9 4b c0 24 e0 6c c0 28 d6 80 c0
       -3.382819 -3.1851563 -3.7011805 -4.026142
000360 70 c7 8b c0 45 cc 8c c0 d6 0c 91 c0 f9 88 89 c0
       -4.3680954 -4.3999352 -4.532817 -4.2979703
000370 b4 2a 78 c0 78 24 6a c0 b8 ee 59 c0 ed 11 4a c0
       -3.8776064 -3.6584759 -3.4051952 -3.157344
000380 21 34 42 c0 73 4f 4c c0 3c 5e 73 c0 07 81 83 c0
       -3.0344317 -3.1923492 -3.8026266 -4.1095004
000390 a3 06 81 c0 73 fb 7e c0 1c 86 b4 c0 e7 a7 9d c0
       -4.03206 -3.9840972 -5.641371 -4.926746
0003a0 46 77 9e c0 00 d3 9d c0 8d e1 9a c0 69 3d bf c0
       -4.9520597 -4.932007 -4.840033 -5.9762464
0003b0 ee b7 98 c0 6d 4c 93 c0 95 c8 99 c0 f4 fb a7 c0
       -4.7724524 -4.6030793 -4.805735 -5.249506
0003c0 00 d6 1b c0 1a c6 27 c0 cb d9 49 c0 df c9 50 c0
       -2.4349365 -2.6214662 -3.153918 -3.2623212
0003d0 d3 34 5b c0 28 42 53 c0 07 aa 5d c0 b8 bc 52 c0
       -3.4250991 -3.3009129 -3.4635026 -3.2927685
0003e0 cc 01 51 c0 5c 78 49 c0 37 b2 96 c0 d5 a0 8d c0
       -3.2657347 -3.1479712 -4.7092547 -4.425883
0003f0 62 ca 8f c0 33 d3 9b c0 8a 24 9c c0 ae 64 95 c0
       -4.493455 -4.869531 -4.8794603 -4.66854

convpool1.0.conv.bias_mu f4 [64]
000000 d8 15 24 be 4a 49 a2 bf 93 f0 5c 3e 2b 53 72 bf
       -0.16023958 -1.2678616 0.21576147 -0.94658154
000010 09 be 46 bf da 2d 3e 3f 80 ee 8c bf 11 52 4f bf
       -0.7763372 0.74288714 -1.1010284 -0.809846
000020 93 92 a7 bf 99 9f 66 3f 95 6d e3 be 7d ed 94 3e
       -1.3091606 0.90087277 -0.44419542 0.2908744
000030 66 f5 98 bf de 3e 9f bf 34 2d f8 be 3b f4 e2 bd
       -1.194989 -1.244106 -0.48471987 -0.110817395
000040 7b e5 8c bf 5d 80 f6 be b9 6b 0f bf e5 3f de be
       -1.1007532 -0.48144808 -0.56023747 -0.43408123
000050 6e e1 38 3f 8e 09 dc be c9 60 a5 bf cc c8 2b 3f
       0.7221898 -0.4297604 -1.2920161 0.67103267
000060 a5 17 32 bf ec 86 6a be 2d 1d 6e bf db 4a d7 bf
       -0.6956733 -0.22903031 -0.9301327 -1.6819719
000070 60 19 37 3f cc e2 8d bf 23 21 2b bf 70 38 8c 3e
       0.71523094 -1.1084838 -0.6684744 0.27386808
000080 3b b4 9d bd 6e 54 a7 bf 83 26 1d bf 8c db 08 3f
       -0.07700392 -1.3072641 -0.6138689 0.5346
000090 26 50 d6 bb ef 25 e1 bf 2a 92 d2 bf 70 2f a4 bf
       -0.006540316 -1.7589701 -1.6450856 -1.2826977
0000a0 86 be e6 3e 96 57 c1 3e 57 8a 58 bf fd 03 c8 3e
       0.45067233 0.37762135 -0.8458609 0.39065543
0000b0 97 ee 68 be 21 58 5a 3e 68 e2 c9 be 52 bc 4a bf
       -0.22747265 0.21322681 -0.39430547 -0.79193604
0000c0 a7 a1 5f be 5e 21 f5 bf c7 cc 4b bf 80 5e cb bd
       -0.21839009 -1.9150808 -0.7960934 -0.09930134
0000d0 72 79 77 bf bd 5d 57 3f e1 f8 df 3e ad 56 cc bf
       -0.96669686 0.8412741 0.43744567 -1.5963951
0000e0 4d e3 14 3e 9e 11 82 bf 1c 1f 8e 3f 63 36 22 bf
       0.14539833 -1.0161626 1.1103244 -0.6336424
0000f0 25 43 b9 bf 08 13 48 3f 1c 5f 39 bf 9a 21 11 bf
       -1.4473616 0.7815404 -0.7241075 -0.56691897

convpool1.0.conv.bias_rho f4 [64]
000000 ea cd 43 c0 8c 20 8a c0 16 60 b2 c0 15 cd 9a c0
       -3.059443 -4.316473 -5.5742292 -4.8375344
000010 e5 f4 96 c0 e5 64 9c c0 57 32 96 c0 d4 44 86 c0
       -4.7173944 -4.887316 -4.693645 -4.195902
000020 a9 e7 8b c0 e3 a9 b5 c0 3f 13 7d c0 ca c4 b0 c0
       -4.372029 -5.676988 -3.9542997 -5.524022
000030 ed b0 87 c0 de b7 65 c0 e7 5d 80 c0 34 8a 90 c0
       -4.2403474 -3.5893474 -4.0114627 -4.5168705
000040 28 90 66 c0 2f 50 89 c0 15 c7 5c c0 1d b6 a5 c0
       -3.6025486 -4.291038 -3.449651 -5.1784806
000050 3a 56 af c0 0a 0f 8b c0 84 df 7f c0 7d 14 ad c0
       -5.4792757 -4.345586 -3.9980173 -5.408751
000060 c8 79 59 c0 9d 46 ad c0 ab e3 8d c0 67 c5 8a c0
       -3.398058 -5.41487 -4.4340415 -4.336597
000070 71 50 bd c0 cb 7a 86 c0 33 3c 7a c0 bc 5f 9b c0
       -5.9160695 -4.2024894 -3.9099243 -4.8554363
000080 e3 bc 97 c0 db f6 86 c0 e7 35 9b c0 65 42 b4 c0
       -4.7418075 -4.2176337 -4.85033 -5.633105
000090 f1 fe 53 c0 b9 57 7e c0 ed 2f 86 c0 b8 29 87 c0
       -3.3124354 -3.9741042 -4.1933503 -4.2238426
0000a0 81 2c ba c0 e2 01 ad c0 6c 58 6c c0 7c 7a bb c0
       -5.8179326 -5.40648 -3.6928968 -5.8587017
0000b0 07 5f b2 c0 64 f7 c4 c0 56 7d ab c0 6b 72 96 c0
       -5.5741 -6.155199 -5.35905 -4.701467
0000c0 8d dc b9 c0 44 2a 7f c0 54 fb 97 c0 ae 1d 84 c0
       -5.8081727 -3.9869547 -4.7494297 -4.128623
0000d0 3e ac 8e c0 ad d1 b5 c0 5d 53 b0 c0 21 b5 80 c0
       -4.4585257 -5.681845 -5.510176 -4.0221105
0000e0 66 83 bd c0 39 e5 69 c0 88 90 af c0 41 27 a1 c0
       -5.92229 -3.6546156 -5.486393 -5.0360417
0000f0 67 2c 88 c0 fa 6f b8 c0 d4 8e 98 c0 bd 37 96 c0
       -4.25542 -5.763669 -4.767435 -4.694304

convpool2.0.conv.W_mu f4 [45, 64, 8]
000000 03 d7 11 bd c1 1b e1 bd be cd 29 bd a2 92 84 bd
       -0.03560544 -0.10991622 -0.041455977 -0.064732805
000010 93 d0 8f bd 4b 02 7a bd 3e 84 3a bd 42 2f c6 bd
       -0.07022204 -0.061037343 -0.045536272 -0.096769825
000020 f8 98 84 bc 32 1a d2 bc 83 8d 59 bd b3 02 bf bd
       -0.016186222 -0.025647257 -0.05311347 -0.09326687
000030 86 0d f0 bc 59 31 84 bd 35 0d d4 bc c0 11 4d bd
       -0.029303323 -0.06454725 -0.025885204 -0.050065756
000040 75 69 73 bd cd 3d 46 bd 58 e6 d7 bd b5 aa 9a bd
       -0.059426744 -0.04839878 -0.105419815 -0.07552091
000050 89 1b 6e bd 86 68 5d bd 7a 0c c4 bd dc 20 42 bd
       -0.05813173 -0.05405476 -0.09572692 -0.04739462
000060 33 cf 9e bd 2f 6d 2e be bf 4c 30 bd 0c 55 07 bd
       -0.07754364 -0.17033838 -0.04304194 -0.03304009
000070 1a 2b 47 bd 1b b3 c4 bd 7b 19 34 bd b6 0c 13 bd
       -0.04862509 -0.09604474 -0.043969613 -0.035900794
000080 03 cf 6a bd 91 6d 3c bd 5d 6e 0a bd 2c ac 0a bd
       -0.057326328 -0.04600293 -0.033796657 -0.033855602
000090 00 a6 ee bd 49 15 7b bd 62 28 5e bd 24 1f 8f bd
       -0.11652756 -0.061299596 -0.05423773 -0.069883615
0000a0 7e 8c 7b bd 9f 45 55 bd 4e f9 63 bd b4 79 23 bd
       -0.06141328 -0.05206835 -0.055657677 -0.039910987
0000b0 ab ba 87 bd 61 af 90 bd 67 cf f6 bd 9d 55 77 bd
       -0.06627401 -0.07064701 -0.120512776 -0.06038438
0000c0 62 7f 26 bd 13 de b7 bd 5a 89 30 bd d3 ee 86 bd
       -0.040648825 -0.08977904 -0.04309974 -0.06588521
0000d0 3c c1 2d bd f7 c1 44 bd 62 36 3f bd b5 d5 34 bd
       -0.04242061 -0.04803654 -0.046682723 -0.04414912
0000e0 52 c2 13 bd ea c1 1a bd 85 ed 44 bd 82 a6 13 bd
       -0.03607399 -0.037782587 -0.04807808 -0.036047466
0000f0 99 b6 2f bd c8 0a c3 bd ff d3 4c bd 58 04 48 bd
       -0.042898748 -0.09523541 -0.050006863 -0.048832268
000100 66 fc ae 3c 1d 48 3e bd 31 5e 24 3c dc 9a ea bc
       0.021360587 -0.04645549 0.010032223 -0.028638296
000110 88 30 60 3b d4 8b 09 3c 7b d4 cd bc 01 c0 a5 3b
       0.0034208614 0.008395154 -0.025125733 0.005058289
000120 c1 6c 9e bd 70 6e 86 bd 0e 47 08 be de e5 4e bd
       -0.07735587 -0.06564033 -0.13308355 -0.050512187
000130 a3 80 83 bd 2e 7f 8c bd 44 9f 76 bd 9b c0 fe bd
       -0.0642102 -0.06860195 -0.06021048 -0.1243908
000140 c9 30 e8 bc 4f 0a 30 bd 61 ef 23 bd 61 fc 52 bd
       -0.028343575 -0.04297858 -0.04002321 -0.05151022
000150 78 aa 90 bd e0 cc 36 bd 86 d1 af bd c7 a4 08 be
       -0.07063764 -0.044628978 -0.08584885 -0.13344108
000160 1c ee af bd 8a d5 cf bd 28 e2 52 bd 63 67 30 bd
       -0.08590338 -0.10148151 -0.05148521 -0.043067347
000170 4e 94 59 bd 0b 39 5a bd 67 89 d9 bd d3 83 4d bd
       -0.05311995 -0.053277057 -0.106219105 -0.050174545
000180 8d 56 3f bd 22 0d 45 bd 21 91 c7 bd a0 cc 22 bd
       -0.0467134 -0.048108228 -0.09744478 -0.039745927
000190 2a 51 3e bd 4c 21 2f bd 75 f4 86 bd 7f 5a 30 bd
       -0.046464123 -0.042756364 -0.06589595 -0.043055054
0001a0 d8 2b e7 bc 97 18 fc bc 08 39 a2 bd b4 0f a1 bd
       -0.028219149 -0.030773444 -0.07921034 -0.07864323
0001b0 d8 db 9a bd d6 0e e9 bc 86 c8 e3 bc f5 95 d8 bc
       -0.07561463 -0.028449457 -0.027805578 -0.026438693
0001c0 61 b0 90 bd 9e 9a 00 bd 68 f5 02 bd c9 30 88 bd
       -0.070648916 -0.031397454 -0.03197232 -0.0664993
0001d0 d8 3d 7a bd 3a cf 25 bd 0a 9a a5 bd eb 09 10 bd
       -0.061094135 -0.04048083 -0.08086021 -0.03516571
0001e0 0e 82 1d bd 69 69 8d bd c3 c5 1a bd d6 7c 22 bd
       -0.038454108 -0.06904871 -0.037786257 -0.039669834
0001f0 63 39 45 bd 29 45 79 bd 29 4f 63 bd 21 44 83 bd
       -0.04815043 -0.060856972 -0.055495415 -0.06409479
000200 41 e4 5b bd 74 2a 06 bd 8a 71 21 bd 5e bd 11 bd
       -0.053684477 -0.03275533 -0.03941492 -0.035580985
000210 c0 8b 2c bd 6f 37 2d bd 0b fb a3 bd 94 2e 32 bd
       -0.042125463 -0.042289194 -0.08006867 -0.04350145
000220 ca 82 4d bd 4a 09 17 bd 87 bc 31 bd 0e a4 95 bd
       -0.05017356 -0.036874093 -0.043392684 -0.073066816
000230 e9 7f ec bd f5 c5 39 bd 09 f1 4a bd 8a 1c 4e bd
       -0.115478344 -0.045354802 -0.049546275 -0.050320186
000240 b7 bf 36 bd 89 c3 06 bd 13 21 1d bd 61 cc 04 bd
       -0.044616427 -0.03290132 -0.03836162 -0.032421473
000250 9a 84 93 bd f5 c0 4f bd 2b f0 07 bd 62 1f 14 bd
       -0.07203026 -0.050721128 -0.033188026 -0.03616274
000260 ad 45 80 bd 2c 5c 21 bd eb a5 18 bd d4 fd 89 bd
       -0.062632896 -0.039394543 -0.037267607 -0.06737867
000270 3a f5 1f bd cf c5 36 bd 6c 70 5d bd 42 68 1d bd
       -0.039052226 -0.04462224 -0.054062292 -0.038429506
000280 a5 cc 98 bd bc 78 92 bd 71 d1 6f bd c8 85 59 bd
       -0.07460908 -0.071519345 -0.05854935 -0.0531061
000290 20 92 75 bd 31 6e 8d bd 92 a8 91 bd c9 ef ac bd
       -0.05995381 -0.06905783 -0.0711223 -0.08444173
0002a0 25 6f 5b bd ac bc ac bd 4e 67 93 bd 7b c5 7a bd
       -0.053572793 -0.08434424 -0.07197438 -0.06122349
0002b0 84 2a 26 be 04 88 04 be 6d f2 49 bd e6 8c a2 bd
       -0.16227156 -0.12942511 -0.04930346 -0.079370305
0002c0 16 e6 e0 bc 93 58 94 bd 5f b0 29 bd 1c 52 83 bd
       -0.027453464 -0.07243457 -0.041427966 -0.064121455
0002d0 28 b7 4a bd c6 23 18 bd 51 6f 27 bd fd c8 66 bd
       -0.049491078 -0.03714349 -0.040877644 -0.05634402
0002e0 91 a7 ac bd 4c 65 70 bd c5 39 e2 bd 9d 5f 4a bd
       -0.08430398 -0.058690354 -0.11046175 -0.04940759
0002f0 d7 18 9e bd ea e7 30 bd 54 09 e4 bd 44 49 c1 bd
       -0.077195816 -0.04318992 -0.11134592 -0.094378024
000300 af c8 69 bd 66 a3 23 bd e0 22 00 bd af ee 02 bd
       -0.057076152 -0.03995075 -0.03128326 -0.031965908
000310 93 6c 30 bd 08 74 33 bd 81 ef 8d bd bb 6b 40 bd
       -0.043072294 -0.043811828 -0.06930447 -0.04697774
000320 9f bf 54 bd 6d 99 5e bd fd c8 5f bd d1 bc 4d bd
       -0.051940557 -0.054345537 -0.054635037 -0.050228897
000330 9b c9 39 be f3 aa 42 bd 10 f5 56 bd 38 5b 44 bd
       -0.18143313 -0.04752631 -0.052479804 -0.047938555
000340 09 72 41 bd 1e 03 a4 bd d4 02 61 bd d3 dd 32 bd
       -0.047227893 -0.08008407 -0.054934338 -0.04366858
000350 a4 6a 9a bb ea c2 f8 bd f7 bd 0a be 41 79 a3 bc
       -0.0047124196 -0.12146552 -0.13549028 -0.01995528
000360 36 3c 6c bd 32 77 72 bd 70 68 6f bd 5a f8 89 bd
       -0.05767461 -0.059195705 -0.05844921 -0.067368224
000370 9d b9 79 bd 9e b8 9b bd df 31 c3 bd ba c0 52 bd
       -0.06096803 -0.07603572 -0.095309965 -0.05145333
000380 9c 9b 82 bd 67 36 36 be c6 d5 56 bd b1 5a 58 bd
       -0.063773364 -0.1779419 -0.052449964 -0.052820865
000390 4b 01 71 bd 3c 8c a3 bd 5e e8 2c be a3 39 98 bd
       -0.058839124 -0.07985732 -0.16885516 -0.07432868
0003a0 14 f2 f2 bc 0a d2 36 bd a7 20 91 bd 9c 72 fd bc
       -0.029656447 -0.044633903 -0.07086306 -0.03093844
0003b0 6f 97 0d bd 50 5b 61 bd 9d 35 a7 bd 1d c1 46 bd
       -0.034568246 -0.055018723 -0.08164523 -0.04852401
0003c0 e8 96 a3 bd d0 f0 4e bd 16 38 17 bd af 63 88 bd
       -0.079877675 -0.050522625 -0.036918722 -0.06659638
0003d0 62 76 34 bd 0f 56 c3 bd e0 81 16 bd 20 ed 64 bd
       -0.04405821 -0.09537899 -0.036744952 -0.055890203
0003e0 29 28 80 bd 79 4d 39 bd d2 7d 8c bd 74 91 73 bd
       -0.0625766 -0.0452399 -0.06859936 -0.059464887
0003f0 3e e5 be bd 40 a3 7e bd bf 9c 58 bd 7a 6d 5a bd
       -0.09321068 -0.062167406 -0.05288386 -0.05332706

convpool2.0.conv.W_rho f4 [45, 64, 8]
000000 b8 fe 39 c0 b1 57 27 c0 da 69 3c c0 28 74 2c c0
       -2.9061718 -2.6147273 -2.9439607 -2.6945896
000010 c9 22 31 c0 fd 6d 35 c0 b5 c5 2e c0 04 4b 26 c0
       -2.767748 -2.8348382 -2.730817 -2.5983286
000020 18 1d 38 c0 0f 52 33 c0 e5 07 2c c0 45 4b 32 c0
       -2.8767757 -2.8018835 -2.6879818 -2.785844
000030 33 86 38 c0 59 c2 26 c0 2f 19 2b c0 ad 2f 2e c0
       -2.8831909 -2.605612 -2.673412 -2.72166
000040 e3 97 30 c0 ab 6b 2b c0 bd 72 32 c0 4b 7c 33 c0
       -2.7592704 -2.6784465 -2.788253 -2.8044612
000050 7a 99 38 c0 73 f5 30 c0 af f5 34 c0 25 f2 3b c0
       -2.8843675 -2.764981 -2.8274953 -2.9366543
000060 53 df 2e c0 82 a5 27 c0 51 d0 30 c0 04 89 33 c0
       -2.7323806 -2.6194768 -2.7627146 -2.8052378
000070 62 55 35 c0 6d 74 29 c0 39 50 2c c0 2c 3b 33 c0
       -2.8333364 -2.647731 -2.6923964 -2.8004866
000080 8d e0 35 c0 3e b2 32 c0 3d 69 39 c0 42 0a 36 c0
       -2.8418305 -2.792129 -2.8970482 -2.844376
000090 19 ba 2f c0 14 27 31 c0 07 93 2c c0 74 67 2c c0
       -2.7457335 -2.7680101 -2.6964738 -2.6938143
0000a0 c3 5d 35 c0 c6 37 2e c0 d9 3e 36 c0 c9 8d 36 c0
       -2.8338478 -2.7221541 -2.847586 -2.8524039
0000b0 65 26 3b c0 1f 9f 34 c0 6f b1 34 c0 9b 3a 30 c0
       -2.9242184 -2.822212 -2.8233297 -2.753577
0000c0 0c 70 35 c0 0c 9c 29 c0 ba 60 30 c0 fe af 34 c0
       -2.8349638 -2.6501493 -2.7559037 -2.8232417
0000d0 e2 c3 35 c0 61 a8 34 c0 91 62 2c c0 40 68 2d c0
       -2.8400807 -2.822777 -2.693516 -2.709488
0000e0 af 41 34 c0 d2 09 32 c0 b3 0a 2d c0 70 93 3c c0
       -2.816509 -2.7818494 -2.703778 -2.9464989
0000f0 d0 f6 31 c0 f6 0e 30 c0 d2 09 31 c0 d2 10 38 c0
       -2.7806892 -2.7509131 -2.7662244 -2.8760266
000100 28 52 35 c0 12 e5 2f c0 e8 f2 36 c0 3a fa 2b c0
       -2.8331394 -2.7483563 -2.8585758 -2.6871476
000110 79 1c 38 c0 92 1c 31 c0 60 92 2d c0 50 d5 34 c0
       -2.8767378 -2.7673688 -2.712059 -2.8255196
000120 bd e4 34 c0 7f e9 3b c0 6e c8 2a c0 f3 fa 36 c0
       -2.826461 -2.9361265 -2.6684833 -2.8590667
000130 80 f4 33 c0 c3 10 30 c0 a7 42 39 c0 3d 72 34 c0
       -2.811798 -2.751023 -2.8946931 -2.8194726
000140 14 34 3b c0 f2 b7 2c c0 f5 45 33 c0 dc c5 34 c0
       -2.9250536 -2.6987271 -2.8011448 -2.8245764
000150 97 bf 2e c0 25 6d 37 c0 d1 5d 2b c0 71 12 34 c0
       -2.7304437 -2.8660367 -2.677601 -2.8136256
000160 54 e6 30 c0 ea 36 32 c0 00 d5 31 c0 bf bb 33 c0
       -2.764058 -2.7846017 -2.7786255 -2.808334
000170 ce 8d 30 c0 4a fd 38 c0 18 45 25 c0 2d be 31 c0
       -2.758655 -2.8904595 -2.5823421 -2.7772324
000180 69 fd 34 c0 a5 b9 39 c0 2c 22 2f c0 b4 c1 2f c0
       -2.827967 -2.9019558 -2.7364607 -2.7461977
000190 2e c7 36 c0 a8 ec 38 c0 c5 a4 28 c0 93 d5 32 c0
       -2.855907 -2.8894444 -2.6350567 -2.7942855
0001a0 2f f5 36 c0 2b 28 2c c0 38 d4 32 c0 4d cf 2a c0
       -2.8587148 -2.6899517 -2.7942028 -2.6689026
0001b0 1c 94 2c c0 66 8d 32 c0 dc 6e 34 c0 d5 1d 35 c0
       -2.6965399 -2.7898803 -2.8192663 -2.8299458
0001c0 c7 02 2d c0 e3 35 32 c0 82 e7 36 c0 a2 a5 2a c0
       -2.7032945 -2.784539 -2.85788 -2.6663594
0001d0 45 ad 2f c0 cb c5 32 c0 b0 42 2f c0 2e 5b 2e c0
       -2.7449505 -2.7933223 -2.7384453 -2.7243152
0001e0 fb 95 32 c0 0c 39 2b c0 40 3a 32 c0 0f f5 38 c0
       -2.790404 -2.6753569 -2.7848053 -2.8899572
0001f0 72 0f 34 c0 11 e2 2f c0 7a 3f 3a c0 69 85 2a c0
       -2.8134427 -2.748173 -2.9101243 -2.6643927
000200 eb 10 2d c0 d8 26 30 c0 a0 71 31 c0 bb ac 37 c0
       -2.7041576 -2.7523708 -2.7725601 -2.8699176
000210 5a be 36 c0 80 bc 30 c0 26 1e 36 c0 bf a7 35 c0
       -2.8553681 -2.7615051 -2.84559 -2.8383634
000220 37 03 33 c0 78 3c 38 c0 f4 e7 36 c0 86 95 31 c0
       -2.7970712 -2.8786907 -2.8579073 -2.7747512
000230 66 90 32 c0 97 50 31 c0 87 14 38 c0 c4 21 30 c0
       -2.7900634 -2.7705438 -2.876253 -2.752061
000240 d3 98 35 c0 46 35 37 c0 f1 1f 32 c0 ad 0a 36 c0
       -2.8374527 -2.8626266 -2.7831995 -2.8444016
000250 c3 8c 2c c0 47 ac 32 c0 97 8d 32 c0 3d 38 2f c0
       -2.6960914 -2.791765 -2.789892 -2.7378075
000260 7d 27 33 c0 26 67 35 c0 a4 51 2f c0 3b 74 2f c0
       -2.7992852 -2.8344207 -2.739358 -2.7414691
000270 76 80 30 c0 23 5a 33 c0 d3 29 37 c0 3f 8b 38 c0
       -2.7578406 -2.8023765 -2.8619277 -2.883499
000280 24 6f 34 c0 1b de 37 c0 91 e8 36 c0 8c a8 34 c0
       -2.8192835 -2.8729312 -2.8579447 -2.8227873
000290 87 2e 35 c0 e7 89 33 c0 d3 eb 34 c0 b7 da 37 c0
       -2.8309648 -2.805292 -2.8268936 -2.8727243
0002a0 3e a2 30 c0 8d 62 2d c0 6d a4 2c c0 80 88 2f c0
       -2.7599025 -2.70914 -2.6975358 -2.7427063
0002b0 59 ce 27 c0 22 eb 2e c0 05 b0 35 c0 7a 31 28 c0
       -2.6219695 -2.7331014 -2.8388684 -2.6280198
0002c0 0e 71 39 c0 14 af 38 c0 7e 98 38 c0 46 c2 36 c0
       -2.8975253 -2.885686 -2.8843074 -2.8556075
0002d0 1a 04 37 c0 69 72 3b c0 d6 68 2b c0 d9 35 2a c0
       -2.8596253 -2.928858 -2.6782737 -2.6595366
0002e0 dd 9a 2a c0 c5 8b 3a c0 c2 c4 2e c0 5b 77 31 c0
       -2.665702 -2.9147809 -2.7307591 -2.7729099
0002f0 2d ad 31 c0 93 0f 2d c0 79 2f 27 c0 84 7e 2e c0
       -2.7761948 -2.7040756 -2.6122725 -2.726472
000300 7c 28 2e c0 9a 4e 2e c0 21 c7 35 c0 f0 86 30 c0
       -2.721221 -2.7235475 -2.8402789 -2.758236
000310 7f 01 2f c0 14 21 30 c0 f2 c6 2d c0 ab ce 2d c0
       -2.7344663 -2.752019 -2.7152677 -2.715739
000320 f7 a1 35 c0 4a 33 36 c0 d5 7d 2e c0 5e bb 26 c0
       -2.8380105 -2.8468804 -2.7264302 -2.605186
000330 0f 5d 22 c0 2d 8c 3d c0 65 cf 35 c0 16 06 2f c0
       -2.5369298 -2.9616807 -2.8407834 -2.7347465
000340 ad 2d 31 c0 59 d4 34 c0 0c 24 31 c0 e0 79 3d c0
       -2.7684128 -2.8254607 -2.7678251 -2.9605637
000350 63 68 2e c0 a4 32 3a c0 96 b5 2a c0 d8 58 31 c0
       -2.7251213 -2.9093409 -2.6673331 -2.7710476
000360 70 0b 35 c0 61 f3 32 c0 7a e2 31 c0 d9 e5 39 c0
       -2.828823 -2.7961047 -2.779448 -2.9046538
000370 8c 02 2f c0 2e eb 29 c0 ee 2d 29 c0 da 86 2d c0
       -2.7345304 -2.6549792 -2.6434283 -2.7113557
000380 7a 84 33 c0 fa f1 27 c0 cc 65 35 c0 9c c5 2f c0
       -2.8049607 -2.624144 -2.8343382 -2.746436
000390 b3 3c 39 c0 b0 29 31 c0 02 c5 30 c0 c8 cb 2c c0
       -2.8943298 -2.7681694 -2.7620244 -2.6999378
0003a0 c2 d3 35 c0 89 52 2e c0 41 f5 2a c0 cf 86 2e c0
       -2.8410497 -2.7237875 -2.671219 -2.726978
0003b0 32 c1 2e c0 f8 59 30 c0 3c a1 27 c0 2d 53 2e c0
       -2.7305417 -2.7554913 -2.619216 -2.7238266
0003c0 9d 22 32 c0 15 ca 33 c0 7b a9 3a c0 2d 7d 31 c0
       -2.7833626 -2.809209 -2.9165943 -2.7732651
0003d0 34 6d 38 c0 ac 5d 26 c0 44 d5 31 c0 1c 0c 2f c0
       -2.8816652 -2.5994673 -2.7786417 -2.735114
0003e0 04 14 2f c0 b1 24 30 c0 b2 68 2f c0 1f 11 34 c0
       -2.7355967 -2.7522395 -2.740765 -2.813545
0003f0 a8 cb 2d c0 bc 48 35 c0 0e 15 32 c0 dc 7a 2d c0
       -2.7155552 -2.8325644 -2.782535 -2.7106237

convpool2.0.conv.bias_mu f4 [45]
000000 5a 73 9f bd ce 2a 7f bd 9c 84 37 bd 3f ff 98 3d
       -0.077856734 -0.06229668 -0.0448042 0.07470559
000010 dd dc 97 bd fe 8f f7 3d 37 5a a3 bd b2 d4 9a bd
       -0.07415173 0.12088011 -0.079761915 -0.075601
000020 f6 2e 62 3c f2 ef 27 bd be da 5f bd 9a 06 81 bd
       0.013805142 -0.041000314 -0.05465197 -0.06300087
000030 3a 9f 79 bd c2 22 ba bd f3 a6 db bd 32 b6 51 3e
       -0.060942866 -0.09088661 -0.107252024 0.20479658
000040 d1 64 a5 bd e0 10 85 bc f5 75 49 be 08 95 00 3d
       -0.0807587 -0.016243398 -0.19673903 0.031392127
000050 e0 de 8e bd 30 02 21 3d a0 32 49 bd e0 6b 41 bd
       -0.06976104 0.039308727 -0.049120545 -0.04722202
000060 be 20 f0 bc 75 65 a5 bd b6 f1 3b bd 9c f6 6b bd
       -0.029312488 -0.08075992 -0.04588481 -0.057608232
000070 de 42 fe bc fa ef 84 3d 9f 39 df bd 67 4f a1 bd
       -0.031037744 0.064910844 -0.10899662 -0.07876473
000080 09 9c c0 bd 31 39 97 3d 26 27 38 bd f3 b3 43 bd
       -0.09404761 0.07383955 -0.04495921 -0.047779035
000090 2b ae 4d bd fe 5c 42 bd 9d d2 4e bd d1 77 35 be
       -0.050214928 -0.047451966 -0.050493825 -0.17721488
0000a0 b5 41 e0 bd 0f 0c 66 be e1 3c 29 3e 20 6e 73 bd
       -0.109500326 -0.22465537 0.1652713 -0.059431195
0000b0 41 b7 80 bd
       -0.06284953

convpool2.0.conv.bias_rho f4 [45]
000000 c3 f3 33 c0 b1 ff 28 c0 bd f6 32 c0 80 cb b0 c0
       -2.811753 -2.6406062 -2.7963097 -5.5248413
000010 00 8d 2d c0 0a bc a9 c0 be ec 33 c0 f9 75 35 c0
       -2.711731 -5.304204 -2.8113246 -2.8353255
000020 41 a1 58 c0 03 2c 2d c0 fe 5d 36 c0 ae 00 32 c0
       -3.3848422 -2.7058113 -2.8494868 -2.7812915
000030 c3 5f 2b c0 1c 68 97 c0 71 55 2a c0 ec 30 ad c0
       -2.6777198 -4.7314587 -2.661465 -5.412222
000040 df 6f 29 c0 7e 27 83 c0 c5 c2 a6 c0 c9 8c 59 c0
       -2.647453 -4.098571 -5.2112756 -3.3992178
000050 18 97 29 c0 03 04 b8 c0 f3 38 34 c0 26 3d 30 c0
       -2.649847 -5.7504897 -2.815976 -2.7537322
000060 2b 63 35 c0 06 e8 2c c0 05 31 38 c0 18 bc 2e c0
       -2.8341777 -2.7016616 -2.877992 -2.7302303
000070 a8 3a 27 c0 97 7f af c0 90 58 25 c0 d1 4d 2c c0
       -2.612955 -5.484325 -2.5835304 -2.6922495
000080 dc 76 3d c0 86 6f b0 c0 4e ba 39 c0 77 cf 2f c0
       -2.9603796 -5.5136137 -2.9019961 -2.7470376
000090 47 07 b9 c0 c5 78 31 c0 a3 6a ac c0 78 5a ac c0
       -5.7821383 -2.7729962 -5.388017 -5.3860435
0000a0 e9 ad 29 c0 d7 c6 86 c0 8b 18 af c0 3f 6d 36 c0
       -2.6512396 -4.2117724 -5.471746 -2.8504179
0000b0 f4 71 31 c0
       -2.7725801

convpool3.0.conv.W_mu f4 [50, 45, 5]
000000 96 64 e5 3b 51 a0 d2 3c a3 4d 1d bb b1 19 6f 3b
       0.007000516 0.02571121 -0.0024002574 0.003648382
000010 6f e5 34 3c c9 f0 90 bd c5 92 8e bd 71 dd a7 bd
       0.011041029 -0.07077176 -0.06961588 -0.081965335
000020 77 6a 28 bc 82 56 8e bd 53 ff 82 bc 41 a4 5c 3d
       -0.010279289 -0.06950094 -0.015990889 0.053867582
000030 9f 78 b1 3d 28 16 0f 3e 13 48 d2 3c 4e 6b 25 be
       0.08665585 0.13973296 0.025669133 -0.16154215
000040 32 df bb be 6d 29 78 3e 29 06 9b 3e 2d 48 32 3e
       -0.36693722 0.24234553 0.30278137 0.17410345
000050 52 66 99 3d 38 8d 31 3d 7a d6 3d 3d d2 cb 73 3d
       0.07490219 0.043347567 0.04634712 0.05952055
000060 32 c2 49 3d 6a 97 7d 3d 48 08 2a be d9 7e 80 be
       0.049257465 0.061911978 -0.16604722 -0.25096777
000070 f3 71 a1 be 5e 85 a2 be c9 2e 02 bd 33 68 16 bd
       -0.3153225 -0.31742376 -0.0317829 -0.036720466
000080 22 a0 b7 3c c5 e2 f8 3c 7a 72 2f bd 1c 28 74 3c
       0.022415224 0.03038157 -0.042833783 0.014902141
000090 20 a0 8a 3d 3e c8 da 3c 28 3f 94 3c fd 4f 04 3e
       0.06768823 0.026706811 0.018096521 0.12921138
0000a0 d2 52 2f 3d b6 0d b4 be 3e a0 0c be d7 03 75 be
       0.042803593 -0.3516671 -0.13733003 -0.23927246
0000b0 d3 43 3d be f5 fa 8a bc 67 70 5a 3b 5a 19 d3 bb
       -0.18482904 -0.016965369 0.0033331157 -0.006442231
0000c0 7d d7 66 bd 2c 34 0b 3c e5 c2 40 bd da 10 1c bd
       -0.05635785 0.008496325 -0.047060866 -0.03810201
0000d0 51 9e 80 bd 37 a2 76 bd 39 fd 5e bd c9 33 32 3d
       -0.062801965 -0.060213294 -0.05444071 0.043506417
0000e0 d9 21 2c 3d b3 ae bc 3c 38 48 bc 3c 63 67 ab 3b
       0.042024467 0.023032522 0.022983655 0.0052308305
0000f0 19 d3 fa bc d5 74 07 3d 7e c7 9a bd c8 0e a4 bd
       -0.030618237 0.033070404 -0.07557581 -0.08010632
000100 18 a8 44 3c db b0 14 3e 93 f3 21 3e c0 a7 28 be
       0.012002967 0.1452059 0.15815572 -0.16470242
000110 13 b3 91 be 02 c3 b7 bb 6b c3 a4 bb 74 3b 05 3c
       -0.28456935 -0.0056079635 -0.0050281784 0.0081318505
000120 ad 56 f8 bd 9c 25 69 3d b9 3c 84 bc ec 14 af 3e
       -0.12125907 0.056920633 -0.016142236 0.3419565
000130 9b 8c 4c be 0f 5a c4 3e 07 7f f0 be 90 74 95 be
       -0.19975512 0.3834996 -0.46971914 -0.29190493
000140 1c 9b a7 3c 4f 4c 74 3c 39 ba 94 3c 07 eb 35 3d
       0.020459704 0.0149107715 0.018155204 0.044413593
000150 32 26 00 3d d0 3c 08 3f 4f c9 e6 3e a6 e9 be 3d
       0.031286426 0.5321779 0.4507546 0.09321909
000160 a2 bf 0c 3f fb b9 85 3c 24 a8 8d 3e 0f 3d fe 3d
       0.5497991 0.016324034 0.27667344 0.1241399
000170 db 47 63 bd ed f7 d6 be 93 64 24 be fa af 74 3e
       -0.05548845 -0.41986027 -0.16053991 0.23895255
000180 10 8e af be 49 13 9d 3e ca ec 15 bf e9 c0 ae be
       -0.34288073 0.30678776 -0.58564436 -0.34131554
000190 a2 8f 79 bc 13 b1 7d 3b 99 bc e6 bb a8 44 34 bd
       -0.015231999 0.003871028 -0.0070415256 -0.04401079
0001a0 d5 f2 47 bd b3 46 cb bd 78 49 15 3e 13 4f 7d 3d
       -0.048815567 -0.09925594 0.14578807 0.06184299
0001b0 25 39 61 3d 95 d4 3f bf 69 a2 f1 3c ef 56 c0 3c
       0.054986138 -0.7493375 0.029496389 0.023478953
0001c0 93 73 56 3d 9c b4 57 3d 73 24 3f 3d db f4 0b bb
       0.052356314 0.052662477 0.04666562 -0.0021355662
0001d0 ca cc 72 bd b2 2b 12 bd 41 5b d9 bc da 86 ee b9
       -0.059277333 -0.035686202 -0.026532771 -0.0004549537
0001e0 16 c6 d9 3b 9c 5e 89 3c 56 99 08 3d ab 7e 9e 3c
       0.006645928 0.016768746 0.033349358 0.01934751
0001f0 93 9d 4a 3c 4d d7 21 bd b9 7f 54 bd 7c fa e6 bc
       0.01236667 -0.039511967 -0.05187962 -0.028195612
000200 f6 b0 e3 bc ba 10 42 bd ce 05 2b bd 55 e5 43 bd
       -0.027794342 -0.047379233 -0.041753583 -0.04782613
000210 a0 dd bc bc 0b 86 16 bd 73 78 9c bc 22 74 c8 3c
       -0.023054898 -0.036748927 -0.019100403 0.024469439
000220 5d 49 20 3d d7 05 ad 3c 02 5f 15 3d 90 f8 72 bd
       0.039132465 0.021120949 0.03646756 -0.05931908
000230 88 db 0c 3d 38 c7 01 3d 38 c1 05 3d 28 76 32 3d
       0.03438905 0.03168413 0.03265497 0.043569714
000240 ff 5f 45 3d aa f6 cc bc f4 f4 8e 3d ce 60 6e 3e
       0.048187252 -0.025019962 0.06980315 0.23279116
000250 9f a7 07 3f c4 49 13 bd dd d7 2e bb 91 c4 aa bd
       0.52990144 -0.03595902 -0.0026678958 -0.08338273
000260 0f 3d 9a bd 73 54 8d bc fb 90 9e bc e3 9c 95 bd
       -0.07531177 -0.017252183 -0.019356241 -0.073053144
000270 7c 6e da 3d d0 57 7b bd ee 8f 09 3c ac db 1a 3e
       0.106656045 -0.06136304 0.008396132 0.1512286
000280 73 cd 83 bd f4 91 42 bd 4e c7 a4 ba e5 e6 0e bd
       -0.06435671 -0.047502473 -0.0012571604 -0.034888167
000290 a1 80 41 bd 4d 71 37 3d f9 7b cb 3d ab 65 78 be
       -0.04724181 0.044785786 0.09935755 -0.24257533
0002a0 2e c7 24 be 1f 31 df be c6 41 8f bc 6d d8 31 bc
       -0.16091606 -0.43592164 -0.017487418 -0.010854823
0002b0 c6 3c 75 3d 12 73 27 bc 49 f2 b9 3b b8 f7 1e bc
       0.05987241 -0.010220306 0.0056746346 -0.009702615
0002c0 7b 8a 9c 3c ee 6a ad bc 8b 20 cc 3b 3f 45 50 bd
       0.019109001 -0.021169152 0.0062294654 -0.05084729
0002d0 10 ae 93 bd 44 06 a8 3d 99 d7 85 3e ca 9e fb bd
       -0.07210934 0.0820432 0.2614105 -0.12286146
0002e0 b8 6c d7 bd 74 33 89 bd 44 4f 6b bd 92 68 f6 bc
       -0.10518783 -0.06699267 -0.05744864 -0.03007916
0002f0 2f 97 c8 bc 8e dd 18 bd 1f 29 8d be 29 1d cd bb
       -0.024486152 -0.037320666 -0.27570435 -0.0062595797
000300 0b 29 e7 3d b5 b9 86 be ea 31 f1 be f1 17 e4 3e
       0.11287125 -0.26313558 -0.47108394 0.44549516
000310 74 cd 88 3e 28 3f c6 3e 98 8a f9 3d 39 b6 fb 3e
       0.26719248 0.3872006 0.12184638 0.49162462
000320 20 a9 73 3c 2f 1f ea bc 85 df 17 3d 6a 5e 59 b8
       0.0148718655 -0.028579323 0.0370784 -5.182476e-05
000330 29 c2 1e bd 08 19 9a 3f 37 b8 1e 3f fa 5f a1 3f
       -0.038759384 1.2038889 0.6199984 1.2607415
000340 7b 44 31 3e 4b 0d dc 3e df ae fb 3d 1e 4e 2b bd
       0.1731128 0.42978892 0.122892134 -0.041822545
000350 24 96 37 be 9e fc c4 be 21 eb ee be 80 06 18 bd
       -0.17928368 -0.38473982 -0.46663764 -0.037115574
000360 80 ee ed bc 99 21 db bc 01 1a 1a 3c e2 03 d9 bc
       -0.02904439 -0.026749419 0.009405614 -0.02649111
000370 80 39 b2 3d 60 61 90 3d b9 0f bc 3d 8e 2b d5 3d
       0.087023735 0.07049823 0.09182686 0.10408698
000380 ec fe d8 3d fb 55 a1 3c cf 3c e4 3c 30 23 c8 3c
       0.105954975 0.019694319 0.027861027 0.024430841
000390 70 b4 e4 3c 42 7c e9 3d c3 51 9d bd 8c e8 3c bd
       0.02791807 0.114006534 -0.076816104 -0.04612021
0003a0 3a 27 92 bd 2f 0e b0 bd 05 da 8f bd 14 24 72 3d
       -0.07136388 -0.08596455 -0.07024006 0.059116438
0003b0 00 1d 09 3d ef 7f 84 bd 16 6d ca 3d e5 bd ea 3c
       0.033474922 -0.06469714 0.09884088 0.028655002
0003c0 6f c4 f8 bd fd 5f 85 be 7f 7b 3e 3e 08 c0 b1 be
       -0.12146842 -0.26049796 0.18601798 -0.3471682
0003d0 c5 6b ef 3d 87 06 9b 3b 43 eb 66 bc bc 01 c4 bb
       0.11690477 0.0047310027 -0.014094177 -0.005981652
0003e0 e3 83 eb bb 42 6a 84 bc ee f6 1b be a8 36 ac be
       -0.007187353 -0.016163949 -0.15230915 -0.3363545
0003f0 4d 87 16 be 9a 01 2d 3e 04 2a 2f bf 00 a7 74 3c
       -0.1470005 0.16895142 -0.68423486 0.014932394

convpool3.0.conv.W_rho f4 [50, 45, 5]
000000 58 ec 30 c0 2d d5 38 c0 56 6f 33 c0 fc 9f 3b c0
       -2.7644253 -2.8880112 -2.8036704 -2.9316397
000010 3d 4c 31 c0 bb c5 2f c0 97 0d 2b c0 48 17 3a c0
       -2.7702782 -2.7464435 -2.6727045 -2.907671
000020 21 12 32 c0 ff 98 38 c0 b6 c6 37 c0 72 25 3f c0
       -2.7823565 -2.8843381 -2.8715034 -2.9866605
000030 29 4a 38 c0 d5 b1 40 c0 4f 68 3c c0 91 00 8e c0
       -2.8795264 -3.010854 -2.9438665 -4.437569
000040 74 3c 73 c0 cc ff 82 c0 1c 37 85 c0 49 55 87 c0
       -3.8005648 -4.093725 -4.162977 -4.229161
000050 6d 64 26 c0 9a 23 29 c0 4d e9 2a c0 e5 f0 39 c0
       -2.5998795 -2.642798 -2.6704895 -2.905328
000060 7f b5 2e c0 e0 8e 8c c0 7f 71 8c c0 dd c2 85 c0
       -2.7298276 -4.392441 -4.3888545 -4.180037
000070 ef 9f 6e c0 de 0c 82 c0 18 4f 35 c0 b8 99 2c c0
       -3.7285116 -4.0640707 -2.8329525 -2.6968822
000080 f2 00 36 c0 55 7b 3b c0 14 19 38 c0 59 f3 34 c0
       -2.8438077 -2.9294026 -2.8765306 -2.8273528
000090 c9 8b 2a c0 27 8d 30 c0 07 d6 35 c0 7e 1b 2e c0
       -2.6647818 -2.7586153 -2.8411882 -2.720428
0000a0 2d 33 4e c0 80 98 40 c0 7a fd 3b c0 b8 d3 49 c0
       -3.2218735 -3.0093079 -2.937346 -3.1535473
0000b0 b9 25 49 c0 c0 29 28 c0 92 94 2a c0 2b 02 28 c0
       -3.1429274 -2.6275482 -2.665318 -2.6251323
0000c0 42 95 2e c0 3e 03 2f c0 8f 10 25 c0 f2 5d 32 c0
       -2.72786 -2.734573 -2.5791357 -2.786984
0000d0 74 02 2c c0 d5 76 26 c0 bd 73 2f c0 4f 0f 2a c0
       -2.6876497 -2.601003 -2.741439 -2.6571844
0000e0 e1 83 32 c0 53 36 2d c0 ac 7f 30 c0 59 b8 30 c0
       -2.7892992 -2.7064407 -2.7577925 -2.7612517
0000f0 07 6c 3d c0 8f 92 40 c0 11 1e 3f c0 fe 6e 35 c0
       -2.9597185 -3.0089452 -2.98621 -2.8348994
000100 5b 4c 39 c0 60 bc 75 c0 a4 25 7e c0 f1 22 72 c0
       -2.8952854 -3.8396225 -3.9710474 -3.7833827
000110 22 ee 62 c0 c0 df 69 c0 aa e2 35 c0 89 d6 2e c0
       -3.5457845 -3.6542816 -2.8419595 -2.7318442
000120 8e c9 35 c0 5e f1 2b c0 84 3c 2a c0 63 f5 90 c0
       -2.840427 -2.686607 -2.6599436 -4.5299544
000130 d8 95 88 c0 de bf 8a c0 da 16 85 c0 11 9d 8d c0
       -4.2682915 -4.3359213 -4.1590395 -4.425423
000140 11 bc 2c c0 f8 eb 37 c0 dd c4 2c c0 2a ca 30 c0
       -2.6989787 -2.8737774 -2.6995156 -2.762339
000150 ce 6c 2c c0 e9 64 33 c0 95 7d 34 c0 54 d0 53 c0
       -2.694141 -2.803034 -2.820165 -3.3095903
000160 d3 9f 67 c0 a2 7c 46 c0 1c b3 8e c0 f1 93 90 c0
       -3.61913 -3.101357 -4.459364 -4.5180593
000170 b7 17 92 c0 8b 66 88 c0 c8 3c 8f c0 85 1d 4b c0
       -4.565395 -4.2625175 -4.4761696 -3.1736767
000180 3e 5e 49 c0 86 11 3b c0 b1 5f 3f c0 64 f1 30 c0
       -3.146377 -2.9229445 -2.9902155 -2.7647333
000190 90 78 2e c0 21 be 2e c0 3d 90 24 c0 64 9e 37 c0
       -2.7261086 -2.7303545 -2.5713036 -2.8690424
0001a0 27 d0 35 c0 44 e0 89 c0 72 47 90 c0 fb 27 92 c0
       -2.8408296 -4.308626 -4.5087214 -4.5673804
0001b0 52 ec 82 c0 4b e9 7e c0 78 ce 26 c0 b0 4f 32 c0
       -4.0913477 -3.982989 -2.6063519 -2.7861137
0001c0 fe 36 38 c0 04 09 31 c0 9f 9f 2b c0 31 42 27 c0
       -2.8783565 -2.7661753 -2.6816175 -2.613415
0001d0 1f 9e 26 c0 a1 bb 2f c0 4e 14 32 c0 7c e7 2a c0
       -2.603401 -2.745827 -2.7824893 -2.6703787
0001e0 39 09 3a c0 ae b1 26 c0 a1 22 2a c0 08 32 2d c0
       -2.906813 -2.6045947 -2.6583636 -2.7061787
0001f0 6e 87 36 c0 cf 31 2b c0 4f a2 2e c0 fd 66 2e c0
       -2.852016 -2.674915 -2.7286565 -2.725036
000200 06 8c 29 c0 74 40 32 c0 b2 7f 2c c0 15 88 2d c0
       -2.6491714 -2.785184 -2.695294 -2.7114308
000210 f6 10 30 c0 f1 49 33 c0 7e 97 2b c0 63 7b 30 c0
       -2.7510352 -2.801388 -2.6811213 -2.757531
000220 59 2c 30 c0 41 9f 28 c0 fb cf 25 c0 17 8b 27 c0
       -2.7527068 -2.63472 -2.5908191 -2.6178644
000230 f5 dd 2c c0 96 0c 30 c0 05 5d 2b c0 db 44 22 c0
       -2.7010472 -2.7507682 -2.6775525 -2.5354526
000240 78 0e 2c c0 9c 01 91 c0 48 18 93 c0 e5 57 96 c0
       -2.688383 -4.5314465 -4.596714 -4.6982293
000250 21 6e 8d c0 32 e0 95 c0 f7 a0 32 c0 09 2b 2c c0
       -4.4196935 -4.6836176 -2.7910745 -2.6901267
000260 94 18 27 c0 d0 51 2e c0 17 a9 2e c0 d0 57 31 c0
       -2.6108751 -2.7237434 -2.7290704 -2.7709846
000270 e0 e5 2d c0 19 d2 2f c0 fa 0d 3a c0 84 fe 34 c0
       -2.7171555 -2.7471983 -2.907103 -2.8280344
000280 7a 3a 3b c0 2f d5 30 c0 dc 73 2d c0 4b 7b 37 c0
       -2.9254441 -2.7630117 -2.7101965 -2.8669002
000290 33 9c 2d c0 b6 ae 6f c0 cc c1 8d c0 21 04 83 c0
       -2.7126586 -3.7450385 -4.429907 -4.094254
0002a0 8d 51 83 c0 da 5e 64 c0 f3 a9 3b c0 c4 ab 32 c0
       -4.103705 -3.5682893 -2.9322479 -2.7917337
0002b0 0b e8 2b c0 50 f9 36 c0 cb f7 3c c0 fc 20 36 c0
       -2.6860378 -2.8589668 -2.952624 -2.8457632
0002c0 b0 b8 2a c0 9d c8 2b c0 54 74 23 c0 ec e3 31 c0
       -2.6675224 -2.6841195 -2.553975 -2.7795362
0002d0 de 86 95 c0 c0 6a 97 c0 30 e7 90 c0 5b 21 91 c0
       -4.6727133 -4.731781 -4.528221 -4.5353217
0002e0 e0 69 93 c0 26 30 2e c0 cf c6 31 c0 5c 26 2c c0
       -4.606674 -2.7216887 -2.7777593 -2.6898413
0002f0 00 74 30 c0 2b 46 37 c0 a6 cb 80 c0 a8 f1 82 c0
       -2.75708 -2.8636577 -4.0248594 -4.091999
000300 8c 3c 80 c0 d2 b7 8c c0 df fe 75 c0 86 74 8f c0
       -4.007391 -4.397439 -3.843681 -4.482974
000310 a8 54 91 c0 a9 37 8f c0 a9 f5 98 c0 20 75 8b c0
       -4.541584 -4.4755445 -4.779988 -4.3580475
000320 01 a5 28 c0 9f 0f 2b c0 d2 90 31 c0 75 a2 32 c0
       -2.635071 -2.6728284 -2.7744641 -2.7911656
000330 1b ac 2a c0 60 7b 45 c0 71 43 45 c0 23 3c 40 c0
       -2.6667545 -3.0856552 -3.0822413 -3.0036705
000340 33 c9 56 c0 7d f2 38 c0 49 f9 8b c0 b6 a5 87 c0
       -3.3560302 -2.8898003 -4.3741803 -4.2389784
000350 aa 68 89 c0 68 75 71 c0 41 c2 84 c0 f3 66 37 c0
       -4.2940264 -3.772791 -4.1487126 -2.8656585
000360 f2 38 42 c0 15 81 34 c0 21 85 40 c0 3f 4b 34 c0
       -3.0347257 -2.8203785 -3.0081255 -2.8170927
000370 86 00 32 c0 69 1f 28 c0 37 4d 2b c0 7e 7b 31 c0
       -2.781282 -2.6269171 -2.6765878 -2.7731624
000380 b3 f3 32 c0 7a d8 38 c0 ed 76 36 c0 b5 0d 37 c0
       -2.7961242 -2.8882127 -2.8510087 -2.8602116
000390 dd 06 33 c0 e5 3d 28 c0 30 bb 2b c0 4c 12 27 c0
       -2.797294 -2.6287777 -2.6833 -2.6104918
0003a0 08 31 38 c0 41 46 2a c0 2b a3 2b c0 61 00 36 c0
       -2.8779926 -2.660538 -2.681834 -2.8437731
0003b0 de 27 42 c0 52 e3 35 c0 98 11 34 c0 1f 86 40 c0
       -3.0336833 -2.8419995 -2.8135738 -3.008186
0003c0 c5 c2 a4 c0 90 f3 9e c0 fb d4 a2 c0 db bb 99 c0
       -5.1487756 -4.9672318 -5.0884986 -4.8041816
0003d0 dd ae a7 c0 82 27 2a c0 5e 93 35 c0 c9 c0 28 c0
       -5.2400956 -2.6586614 -2.8371196 -2.6367667
0003e0 91 c2 35 c0 bd 79 32 c0 73 6b 98 c0 14 f8 95 c0
       -2.8400004 -2.7886803 -4.7631164 -4.686533
0003f0 84 f6 90 c0 dc 16 8e c0 ac 9c 88 c0 b9 ce 3a c0
       -4.5300922 -4.4402905 -4.269125 -2.9188673

convpool3.0.conv.bias_mu f4 [50]
000000 7a 98 da be ae 5f a9 3e f3 7f 2e 3f 8a 81 2b 3f
       -0.42694455 0.3308081 0.68163985 0.66994536
000010 6c bb c6 bd 8f d1 da 3e 36 3d db 3e 6c e0 f8 3e
       -0.09703717 0.42738006 0.42820138 0.4860872
000020 ee f3 93 3f 29 66 fb bd 53 86 8a 3f ea 85 0e 3f
       1.1558816 -0.12275345 1.0822242 0.55673087
000030 c3 59 8e 3f 38 43 4d be 43 7a 17 3f 06 2b 38 bf
       1.1121143 -0.20045173 0.5917093 -0.7194065
000040 ac 28 07 3f d3 b8 60 3f 15 32 16 3f 18 d3 46 3e
       0.52796435 0.8778202 0.5867017 0.19416463
000050 6b 83 9f 3e 64 54 ea bd 6b fe 6c bf 75 b8 c8 3e
       0.3115495 -0.114418775 -0.9257571 0.3920323
000060 a3 5e 32 be b6 ca 3c 3f 3f 4e 6a be 0a a4 73 3f
       -0.17418914 0.7374681 -0.22881411 0.9517218
000070 fb c8 1e 3f 6d 33 3b 3f d4 74 ab be f1 90 3d be
       0.6202542 0.73125345 -0.3348757 -0.18512322
000080 56 67 84 3f 0d 23 0e bd 0c e7 46 3f 69 d8 1c 3f
       1.0344036 -0.034701396 0.776963 0.61267716
000090 41 21 40 3f 44 21 49 3f 7f ca 23 be 53 8d 9d 3e
       0.7505074 0.78566384 -0.15995215 0.30771884
0000a0 40 a8 1d be b9 4d 1a 3f 41 ea a1 bc 8b b1 aa 3e
       -0.15396214 0.60274845 -0.019765021 0.3333858
0000b0 33 44 a8 3e 4b 7a ae 3e 7b 41 52 be 8c 29 4d be
       0.32864532 0.34077677 -0.20532791 -0.2003538
0000c0 64 15 07 3f ad 55 37 3f
       0.52767015 0.71615106

convpool3.0.conv.bias_rho f4 [50]
000000 17 cd 68 c0 da 5f 90 c0 a6 d9 82 c0 68 8d 89 c0
       -3.6375177 -4.5117006 -4.0890684 -4.2985115
000010 d3 75 89 c0 7a 94 83 c0 2d 36 90 c0 ec 59 80 c0
       -4.295633 -4.1118746 -4.5066133 -4.010977
000020 ab 18 77 c0 b2 f1 34 c0 ea a5 7a c0 ad 1f 8f c0
       -3.8608806 -2.827252 -3.9163766 -4.4726167
000030 37 a0 75 c0 be f0 3e c0 1d 2e 83 c0 17 f6 81 c0
       -3.8379037 -2.9834437 -4.099379 -4.0612903
000040 1c c5 89 c0 ca 1e 64 c0 03 8f 85 c0 3b 28 6f c0
       -4.305311 -3.5643792 -4.1737075 -3.7368305
000050 5c 15 52 c0 64 dc 8d c0 15 6c 8d c0 37 4c 95 c0
       -3.2825537 -4.433153 -4.4194436 -4.6655536
000060 85 75 58 c0 ae 99 84 c0 40 9e 3b c0 bf a8 73 c0
       -3.3821728 -4.1437597 -2.9315338 -3.8071744
000070 9d 30 92 c0 ab 80 79 c0 5d c1 5e c0 08 f6 8a c0
       -4.5684342 -3.8984783 -3.480552 -4.342533
000080 b0 64 85 c0 87 b2 38 c0 bf 2c 81 c0 8d 20 81 c0
       -4.168541 -2.8858964 -4.036712 -4.0352235
000090 2e 77 84 c0 ba c2 7b c0 e6 e4 29 c0 19 2b 93 c0
       -4.1395483 -3.9337602 -2.6545959 -4.599011
0000a0 69 7e 2b c0 8c cc 7d c0 bc a8 82 c0 0e a0 69 c0
       -2.6795905 -3.9656096 -4.0830975 -3.650394
0000b0 a6 63 90 c0 72 05 92 c0 ef 09 2b c0 d5 65 8c c0
       -4.512164 -4.5631647 -2.6724813 -4.3874307
0000c0 88 99 7c c0 49 c2 8f c0
       -3.9468708 -4.4924664
